HloModule cluster_0__XlaCompiledKernel_true__XlaNumConstantArgs_0__XlaNumResourceArgs_0_.29

%fused_computation (param_0.2: f32[6272,1024]) -> f32[6272,1024] {
  %param_0.2 = f32[6272,1024]{1,0} parameter(0)
  %constant_0 = f32[] constant(0.17056), metadata={op_type="Mul" op_name="owlnode13/random_uniform/mul"}
  %broadcast.1 = f32[6272,1024]{1,0} broadcast(f32[] %constant_0), dimensions={}, metadata={op_type="Mul" op_name="owlnode13/random_uniform/mul"}
  %multiply.0 = f32[6272,1024]{1,0} multiply(f32[6272,1024]{1,0} %param_0.2, f32[6272,1024]{1,0} %broadcast.1), metadata={op_type="Mul" op_name="owlnode13/random_uniform/mul"}
  %constant_1 = f32[] constant(-0.08528), metadata={op_type="Add" op_name="owlnode13/random_uniform/add"}
  %broadcast.0 = f32[6272,1024]{1,0} broadcast(f32[] %constant_1), dimensions={}, metadata={op_type="Add" op_name="owlnode13/random_uniform/add"}
  ROOT %add.0 = f32[6272,1024]{1,0} add(f32[6272,1024]{1,0} %multiply.0, f32[6272,1024]{1,0} %broadcast.0), metadata={op_type="Add" op_name="owlnode13/random_uniform/add"}
}

%fused_computation.1 (param_0.5: f32[1024,10]) -> f32[1024,10] {
  %param_0.5 = f32[1024,10]{1,0} parameter(0)
  %constant_2 = f32[] constant(0.17056), metadata={op_type="Mul" op_name="owlnode13/random_uniform/mul"}
  %broadcast.3 = f32[1024,10]{1,0} broadcast(f32[] %constant_2), dimensions={}, metadata={op_type="Mul" op_name="owlnode17/random_uniform/mul"}
  %multiply.1 = f32[1024,10]{1,0} multiply(f32[1024,10]{1,0} %param_0.5, f32[1024,10]{1,0} %broadcast.3), metadata={op_type="Mul" op_name="owlnode17/random_uniform/mul"}
  %constant_3 = f32[] constant(-0.08528), metadata={op_type="Add" op_name="owlnode13/random_uniform/add"}
  %broadcast.2 = f32[1024,10]{1,0} broadcast(f32[] %constant_3), dimensions={}, metadata={op_type="Add" op_name="owlnode17/random_uniform/add"}
  ROOT %add.1 = f32[1024,10]{1,0} add(f32[1024,10]{1,0} %multiply.1, f32[1024,10]{1,0} %broadcast.2), metadata={op_type="Add" op_name="owlnode17/random_uniform/add"}
}

%fused_computation.2 (param_0.7: f32[5,5,1,32]) -> f32[5,5,1,32] {
  %constant_5 = f32[] constant(-0.08528), metadata={op_type="Add" op_name="owlnode13/random_uniform/add"}
  %broadcast.5 = f32[5,5,1,32]{3,2,1,0} broadcast(f32[] %constant_5), dimensions={}, metadata={op_type="Add" op_name="owlnode9/random_uniform/add"}
  %param_0.7 = f32[5,5,1,32]{3,2,1,0} parameter(0)
  %constant_4 = f32[] constant(0.17056), metadata={op_type="Mul" op_name="owlnode13/random_uniform/mul"}
  %broadcast.4 = f32[5,5,1,32]{3,2,1,0} broadcast(f32[] %constant_4), dimensions={}, metadata={op_type="Mul" op_name="owlnode9/random_uniform/mul"}
  %multiply.2 = f32[5,5,1,32]{3,2,1,0} multiply(f32[5,5,1,32]{3,2,1,0} %param_0.7, f32[5,5,1,32]{3,2,1,0} %broadcast.4), metadata={op_type="Mul" op_name="owlnode9/random_uniform/mul"}
  ROOT %add.2 = f32[5,5,1,32]{3,2,1,0} add(f32[5,5,1,32]{3,2,1,0} %broadcast.5, f32[5,5,1,32]{3,2,1,0} %multiply.2), metadata={op_type="Add" op_name="owlnode9/random_uniform/add"}
}

ENTRY %cluster_0__XlaCompiledKernel_true__XlaNumConstantArgs_0__XlaNumResourceArgs_0_.29 (arg0.1: f32[5,5,1,32], arg1.2: f32[1024,10], arg2.3: f32[6272,1024]) -> (f32[5,5,1,32], f32[1024,10], f32[6272,1024]) {
  %arg0.1 = f32[5,5,1,32]{3,2,1,0} parameter(0), parameter_replication={false}, metadata={op_name="XLA_Args"}
  %fusion.2 = f32[5,5,1,32]{3,2,1,0} fusion(f32[5,5,1,32]{3,2,1,0} %arg0.1), kind=kLoop, calls=%fused_computation.2, metadata={op_type="Add" op_name="owlnode9/random_uniform/add"}
  %arg1.2 = f32[1024,10]{1,0} parameter(1), parameter_replication={false}, metadata={op_name="XLA_Args"}
  %fusion.1 = f32[1024,10]{1,0} fusion(f32[1024,10]{1,0} %arg1.2), kind=kLoop, calls=%fused_computation.1, metadata={op_type="Add" op_name="owlnode17/random_uniform/add"}
  %arg2.3 = f32[6272,1024]{1,0} parameter(2), parameter_replication={false}, metadata={op_name="XLA_Args"}
  %fusion = f32[6272,1024]{1,0} fusion(f32[6272,1024]{1,0} %arg2.3), kind=kLoop, calls=%fused_computation, metadata={op_type="Add" op_name="owlnode13/random_uniform/add"}
  ROOT %tuple.28 = (f32[5,5,1,32]{3,2,1,0}, f32[1024,10]{1,0}, f32[6272,1024]{1,0}) tuple(f32[5,5,1,32]{3,2,1,0} %fusion.2, f32[1024,10]{1,0} %fusion.1, f32[6272,1024]{1,0} %fusion), metadata={op_name="XLA_Retvals"}
}

